…
          "base_uri": "https://localhost:8080/"
        },
        "id": "cCCryex-fmPO",
        "outputId": "9d333e6b-0c7f-433b-b3f3-c43a90a189b9"
      },
      "execution_count": 27,
      "outputs": [
        {
          "output_type": "stream",
          "name": "stdout",
          "text": [
            "Model: \"sequential\"\n",
            "_________________________________________________________________\n",
            " Layer (type)                Output Shape              Param #   \n",
            "=================================================================\n",
            " conv2d (Conv2D)             (None, 29, 29, 32)        1568      \n",
            "                                                                 \n",
            " max_pooling2d (MaxPooling2D  (None, 14, 14, 32)       0         \n",
            " )                                                               \n",
            "                                                                 \n",
            " conv2d_1 (Conv2D)           (None, 11, 11, 64)        32832     \n",
            "                                                                 \n",
            " max_pooling2d_1 (MaxPooling  (None, 5, 5, 64)         0         \n",
            " 2D)                                                             \n",
            "                                                                 \n",
            " flatten (Flatten)           (None, 1600)              0         \n",
            "                                                                 \n",
            " dense (Dense)               (None, 512)               819712    \n",
            "                                                                 \n",
            " dense_1 (Dense)             (None, 256)               131328    \n",
            "                                                                 \n",
            " dense_2 (Dense)             (None, 128)               32896     \n",
            "                                                                 \n",
            " dense_3 (Dense)             (None, 10)                1290      \n",
            "                                                                 \n",
            "=================================================================\n",
            "Total params: 1,019,626\n",
            "Trainable params: 1,019,626\n",
            "Non-trainable params: 0\n",
            "_________________________________________________________________\n"
          ]
        }
…
